data.pth (torch_old, 7749 bytes, 6 tensors)

layer1.weight f4 [16, 62]
00000000: d99e 823e 715f a23e e1e0 f73e 6396 963e
00000010: 0385 9c3e 42d3 243d 056c fdbd 8c51 3c3e
00000020: 1e28 dc3e a6eb b13e 294d e03e cc81 b23e
00000030: 9a83 743e a491 d73e d2d0 733e 16c6 913c
00000040: 7256 5fbe de79 b43e ef48 bd3e 34af de3d
00000050: 0ed2 3bbe d1be 143f 195a d3be 883c a6be
00000060: d56a 303c eae4 ca3d b1a6 8bbe a908 953e
00000070: 6329 07bd aa67 bd3d f583 333e 0952 8e3e
00000080: 846a 10bd 822f 3a3e 451a f93d d3d2 bb3e
00000090: b046 bd3e 6624 50be a5dc 04be be5e e1bc
000000a0: 4172 033f f604 cabd 76c3 773e 423c be3e
000000b0: 5c54 f3bd e622 b43e e483 d9be 4a55 3ebe
000000c0: 65ea d33e da60 c83e 7092 68be 4c8c 0bbd
000000d0: a6c2 6abe dde1 f23c f878 483f 5d3d a93e
000000e0: a00d 88be cd82 51be fc0d 78be 5a1a bdbe
000000f0: d2e5 663e fae1 383e e3df 503e e7db 26be
00000100: 6d25 50be 627d 9c3e efaf 08be f188 af3e
00000110: ab21 cb3d 71cd 903d bedc 8abe 0656 123d
00000120: a1d3 0c3f 5464 2dbd 8648 39be 5b9a bbbe
00000130: 9af6 1fbe a436 a43d c261 aa3e 920e 80be
00000140: 56cf 67be 1ff4 4bbe 4224 713e e643 b23e
00000150: 1c54 62be bcde ce3e 8960 a8be 711f a9bd
00000160: 81e1 ce3e 4144 37be 8018 9fbd d46d bc3e
00000170: 0f5d 14be 93b6 1fbd fd34 41be 7e6e c33e
00000180: 087d 853e 3acc dbbc 47c5 48be 2ac1 4fbe
00000190: 7b9f 82be 1b28 8ebd b234 a3be 25a7 433e
000001a0: a3b2 dabd 3de1 c7bb 9fca 9bbe 24de a33e
000001b0: b933 c0be 54a0 833e 8664 6739 ca7d 73bd
000001c0: 2e90 08bf 58c0 c2be aa12 8dbe 03b4 a53e
000001d0: 077b 373f 1421 8fbd 18d0 4d3d 2c2c 57bd
000001e0: 3415 433e 26a9 36be c323 7e3d a75d aa3e
000001f0: 968c 953e 6fd6 3fbe adb8 8c3e 4cb6 713e
00000200: a0e0 cd3e ee63 f33d 80f5 e63e dd87 983e
00000210: 9632 0b3f 86f7 af3c 1c6b d8bd 23cf dfbc
00000220: fffe a43e a80d a7bd 5906 e73e 6d10 f33c
00000230: bc8e e13e ee08 873e fe83 fe3e d57c 6a3d
00000240: 7e17 bc3e d7be 853d aeaa 7ebe 81b9 033f
00000250: ef0e 3bbe 9f3a 963e 8067 f53e 9cd2 8f3e
00000260: a5ae b23e 443e 7e3d d88a c53e 880b c53e
00000270: 8b54 8dbe e345 b3bd b86e e93e f8f0 003d
00000280: 3117 8a3e f4f7 9cbe d199 bbbe 40cd 65be
00000290: 343a 3ebd 098a cf3e 38e3 aa3e c12b ccbe
000002a0: 8582 aabe f728 953d 070a c2be 2e85 a03e
000002b0: 8e69 f4bd 4b70 79be cc8d 9cbe f111 53be
000002c0: 145d 99be bce8 893e 3436 393f 86c6 febd
000002d0: e061 f63d 4883 983e 2273 cf3e 70fb 7bbe
000002e0: 33b7 0a3e 5085 ea3e d159 e43e cf5c ce3e
000002f0: 194a b6be d906 ad3e 0022 9c3e 0d84 8ebe
00000300: a4e4 a2be 8691 cf3e 9045 2d3e 0178 4d3e
00000310: ea79 003f 55c2 d63e 5a7d c4be 8371 35be
00000320: c27f 0cbf e49d 9abd a284 65be f229 db3e
00000330: 936e b83e e783 2b3d 21f5 98be b4be 053f
00000340: 947c cabe dad8 05bf 3704 8f3e e06f 8f3e
00000350: 6dbe cabe d542 e73e f29e 8bbe 29cd 93be
00000360: bd91 8e3e 21fc 703c db8b 69be fc2a eb3e
00000370: ad2b 883e a6fb d63e 9ab6 a1be 4aa7 79be
00000380: 6d79 53be c0aa 38be 8cc7 8cbe 4909 62be
00000390: e84d 673e f9b6 163f c1cd e9bd 52e5 cf3e
000003a0: d432 96be d6e8 893e c73a 683e 088b a73e
000003b0: 35e9 323f 21b9 c03e 9774 d3bd b98f 4dbe
000003c0: 2cdc 33be 862e 2f3e 9622 28bc 3c22 72be
000003d0: 97be ae3e 383e 95be 01c0 7c3e afff 9e3d
000003e0: 6e42 ca3e d890 18bd 2576 503d 7688 aa3e
000003f0: 1f48 743e 545d 8dbc 381f 263d 616d df3e
0.25511816 0.3171344 0.48413756 0.2941161 0.3057023 0.040240534 -0.12374119 0.18390483
0.42999357 0.34750098 0.4380887 0.34864652 0.23878327 0.42103302 0.23810127 0.01779465
-0.2181032 0.35249227 0.36969706 0.10873261 -0.18341848 0.5810366 -0.41279677 -0.32468057
0.010767658 0.09906943 -0.27275613 0.2910817 -0.032998454 0.09248288 0.17530806 0.27796963
-0.03525783 0.18182185 0.12163214 0.36684284 0.36967993 -0.20326385 -0.12974794 -0.027510997
0.5134621 -0.098642275 0.24195656 0.37155348 -0.11881325 0.35182875 -0.42483437 -0.18587223
0.41389766 0.39136392 -0.22712111 -0.034069344 -0.22925815 0.029648716 0.78309584 0.3305463
-0.26572895 -0.20460053 -0.24224085 -0.36934167 0.22548607 0.18054953 0.20397906 -0.16294824
-0.20326777 0.3056441 -0.13348363 0.34284166 0.09918531 0.07070435 -0.27121538 0.03572657
0.5501042 -0.04233201 -0.18094072 -0.366412 -0.15621415 0.08018234 0.33277708 -0.25011116
-0.22637686 -0.19917344 0.23548988 0.34817427 -0.22102398 0.40404308 -0.3288615 -0.0825795
0.4040642 -0.1789713 -0.07768345 0.36802542 -0.14488624 -0.038992476 -0.1886787 0.38170236
0.26071954 -0.026830781 -0.19606505 -0.2028853 -0.255123 -0.06941243 -0.3187614 0.1910673
-0.106786035 -0.0060998485 -0.30428025 0.32005417 -0.3753946 0.25708258 0.00022067325 -0.059446134
-0.53345 -0.38037372 -0.27553302 0.323639 0.716721 -0.06988731 0.05024728 -0.05253236
0.19051057 -0.17837963 0.062045824 0.33274576 0.2920882 -0.18734144 0.27484646 0.23604697
0.40210438 0.118842945 0.45109177 0.29791155 0.54374063 0.021480333 -0.105673045 -0.02732045
0.32225797 -0.081569016 0.4512203 0.029670918 0.4405421 0.26374 0.49710077 0.057247955
0.36736673 0.065305404 -0.24869797 0.5145493 -0.18267415 0.293416 0.47930527 0.2809037
0.34898868 0.0620711 0.38582492 0.3848536 -0.27603564 -0.08753564 0.45592284 0.031479806
0.2697082 -0.30657923 -0.3664079 -0.22441578 -0.046442226 0.40535 0.3337648 -0.39877132
-0.33302703 0.07283204 -0.37898275 0.31351608 -0.119341955 -0.24359243 -0.30576932 -0.20612313
-0.29953825 0.26935375 0.7234833 -0.12440209 0.12030387 0.2978766 0.40517527 -0.24607635
0.13546447 0.45804834 0.44599774 0.40305182 -0.35603407 0.33794287 0.3049469 -0.27835122
-0.31815064 0.40540713 0.16921067 0.20065309 0.50186026 0.4194514 -0.38376886 -0.17719083
-0.5488244 -0.075496465 -0.22413877 0.4280544 0.3602186 0.04187384 -0.2987452 0.52244115
-0.3954817 -0.52284014 0.27932903 0.2801504 -0.39598408 0.45168176 -0.27269703 -0.28867462
0.27845564 0.01470855 -0.22807257 0.45931232 0.26595822 0.41988868 -0.31584626 -0.24380222
-0.20651789 -0.18033886 -0.27495992 -0.22073855 0.22588313 0.58872944 -0.114161976 0.40604645
-0.29335654 0.26935452 0.22678672 0.3272326 0.69887096 0.37641242 -0.10324972 -0.20074357
-0.17564458 0.17107591 -0.010262152 -0.23645872 0.34129784 -0.29149032 0.24682619 0.077636115
0.39503807 -0.03724751 0.05089392 0.33307236 0.23855637 -0.017256416 0.040557116 0.43638137

layer1.bias f4 [16]
00000000: 114d e53e 875d 093f 6e37 e63e a2db 053f
00000010: 5d2e 973e 4c6a f33e 9841 d33e aa2b 953e
00000020: 07a2 4e3e 36da 1e3f 03fc c43e b6db af3e
00000030: 8ab6 2b3f f749 c73e 6cd3 383f cd04 c13e
0.4478536 0.53658336 0.44964164 0.5228826 0.2952756 0.47542036 0.41260982 0.29134876
0.20178996 0.62051713 0.3847352 0.34347314 0.6707541 0.38923618 0.72197604 0.37698975

layer2.weight f4 [16, 16]
00000000: b365 40bf 0a3c 12bf c1e0 033d 4b00 94be
00000010: 8500 583f 67f0 443f cdbb 943f 3e98 833f
00000020: 332f 8fbe 5e98 073d da80 803f 107f 213f
00000030: 5589 8f3e eb2b 7c3d b045 ec3e 7da5 063e
00000040: d47a 513f 0ae4 cf3d 496b 1f3f 230c 653e
00000050: 68f8 d2be 2ece 0cbd 3898 83be b00b 9d3e
00000060: 1df9 6d3f ee3b d43d d85c e7be 78f9 953e
00000070: bb6c 3cbf 854b 0b3f 2cae 8bbe 2659 813e
00000080: 7635 373e fc05 6abe 94ef 243d e4f2 5bbe
00000090: 7dae f8bd 73c3 4bbd 04ca efbd 4324 c73d
000000a0: 5174 f63d 82f2 703b f69d 46be 471b 1e3d
000000b0: 5f68 bc3d f1c7 3abd 2cd9 4dbe 0680 17be
000000c0: 38c6 1abf afc8 993e 4e47 a5bb 40ec 5cbe
000000d0: 7731 123f f05a 363f 7438 d9be 7b85 da3e
000000e0: d821 84be 509c 723e d136 553e fdf2 083e
000000f0: ce97 913e b6c3 f1bd eed6 113e 8f31 033f
00000100: da2a 1dbe 3832 37be b8cb 963d 928c 6dbe
00000110: 8ae4 2c3e 9e29 2a3e 00b8 3ebe 2ce4 7abe
00000120: 4030 d73b 6449 fbbd 18e1 893d 3497 74be
00000130: e0db a73c 801d 08be 2251 7b3e b4a7 adbd
00000140: ca71 073f 7cb3 04be 805d 073f e619 f33e
00000150: 105e ab3e 72a1 fdbe e01d 66bd 2d80 083f
00000160: ac62 8b3d 6bec 04bf 9a31 65bf 08e2 4b3e
00000170: 9afe 093e 1256 80be 4be1 dd3e 7940 743d
00000180: 1030 fc3e fcc1 973e 6323 e2be 8664 573f
00000190: b5cd f4bd 355b 113f 0f5b 62bd 47a3 68be
000001a0: 76bc d6bc d587 6c3f 1e13 2d3f 074b cfbe
000001b0: cd2a 493f ea69 0a3f 7713 343f 2e48 b7be
000001c0: 2614 3d3f 499c 243d f21a e43d 7e5f 5a3f
000001d0: 7d12 f4be cad4 67be 43ed 2c3f 5e60 0d3e
000001e0: 241c a63e 1e12 db3e 1b92 a73e 914a bdbe
000001f0: 1a60 2c3f 3f7a 2f3f 81f4 2b3f 16d0 03bf
00000200: ed46 7ebe a475 323f a95a e03e 426a 39be
00000210: 5fcd afbe bcda 043f 9efc 743f 4460 ffbe
00000220: 245a 00bf 923a dfbd 2d96 523f 6ceb 923e
00000230: ce22 4f3f 3457 5ebe d51b e63e 47fd ce3e
00000240: 231b 29be 30eb 93be 2668 a33e b3c1 0e3f
00000250: d0e5 1a3f 4f45 f23e d10a 2b3c 02e0 5a3f
00000260: b43f 0c3f 863d d4be b977 62be 1c41 f73e
00000270: fbf3 50be 486a 4f3f d417 cbbe e1eb 193f
00000280: 6219 d73d f6b5 4a3f 4b14 e53e 9b91 ca3d
00000290: d8f1 0c3f 209f 933e 323b 0dbf 96d3 4abe
000002a0: 4b1f 38be 46a2 d33e 1dba 7cbe a061 8c3e
000002b0: dbec 003f eb98 63bf 2dcf 313e f194 19be
000002c0: 1086 a43d 4140 203f 75c0 3a3f 26c7 1bbf
000002d0: 190b a9be 3502 ea3e 1c84 453f c101 febe
000002e0: 2d0f 03bd f040 f2be 1d72 993e 1d2f 143f
000002f0: 5134 273e 6844 ecbe f022 b8be efa4 083f
00000300: f977 debd 58e8 2bbd 6751 553e cf1d 66bf
00000310: fb04 c1be 7564 35bd 0ca1 013f cc0f fdbe
00000320: c4a5 943e 87a0 243f b184 313e ce86 113f
00000330: 0e5c f5be 320e d53e 16cd c83e b682 373f
00000340: 3ee9 4fbe 26db 24bd 0d38 233d a835 7fbd
00000350: 4747 f637 68bb 61bd 202c 0dbe f86a 4abe
00000360: 0276 7cbe af12 5f3d 2f34 a63d 539c 143e
00000370: 9ce0 113e 2c64 a23d 9906 87be aa3d e9bd
00000380: 7407 efbe a0f5 ffbe 6b49 01bf e4b4 0fbf
00000390: 7325 cd3e 4df3 953e 03a0 623f 4996 3b3e
000003a0: 7df6 87be f48b 153f 292a 243f 6422 3a3f
000003b0: 0e37 573e 7ee2 1a3f be89 f43e aa53 833e
000003c0: f22c 223f 8454 ed3e f4fe 0c3f 4f87 4bbd
000003d0: 2815 473f 5bd8 53be ea06 d5bd 70c9 e0be
000003e0: f0a9 2c3f ed45 9a3e c5b6 e1be f87f 2a3f
000003f0: f819 5abe 7c32 21bf 0bb3 0f3f b0d1 903d
-0.7515518 -0.5712286 0.032196764 -0.28906474 0.8437579 0.76929325 1.1619812 1.0280836
-0.27965698 0.033104293 1.0039322 0.63084507 0.28034464 0.06156532 0.46146917 0.13149066
0.81828046 0.10150917 0.6227308 0.22367911 -0.41205144 -0.034376316 -0.2570207 0.3067298
0.9295824 0.10362993 -0.45188022 0.29291892 -0.7360341 0.5441211 -0.2728132 0.25263327
0.17891487 -0.22853845 0.040267542 -0.21479374 -0.12142656 -0.04974694 -0.11708453 0.09723713
0.12033904 0.003676564 -0.19396195 0.038600232 0.09199595 -0.045600835 -0.20102376 -0.14794931
-0.6045871 0.30035922 -0.0050439006 -0.21574497 0.5710673 0.7123251 -0.42425883 0.42679963
-0.2580707 0.23692441 0.20821692 0.13373943 0.2843613 -0.11804907 0.14242145 0.51247495
-0.15348378 -0.1789025 0.07363075 -0.23198155 0.16884056 0.16617438 -0.18624878 -0.24501103
0.006567031 -0.122698575 0.06732386 -0.23885804 0.020490587 -0.13292503 0.24542668 -0.084792525
0.52908003 -0.12959093 0.52877045 0.47480696 0.33470201 -0.49537235 -0.056180835 0.5332058
0.068059295 -0.51923245 -0.8952881 0.19910443 0.13476029 -0.25065666 0.43335947 0.0596318
0.4925542 0.29640186 -0.44167623 0.8413776 -0.11953298 0.56779796 -0.05526262 -0.22718535
-0.026212912 0.92394763 0.67607296 -0.4048693 0.78580934 0.5406786 0.703422 -0.35797256
0.7385887 0.040188108 0.11137952 0.8530196 -0.47670355 -0.22639766 0.6754953 0.13806292
0.32443345 0.4278726 0.32728657 -0.36970952 0.6733414 0.6854591 0.6716996 -0.5148939
-0.24831744 0.69710755 0.43819168 -0.1810694 -0.34336373 0.5189626 0.95697963 -0.49878132
-0.50137544 -0.10899843 0.822604 0.28695238 0.8091248 -0.21712953 0.4494311 0.4042761
-0.16514258 -0.2889037 0.31915396 0.5576431 0.60506916 0.47318503 0.010439591 0.8549806
0.54784703 -0.4145319 -0.22115983 0.48291862 -0.20405571 0.8102155 -0.39666617 0.6012555
0.10502888 0.791839 0.44742045 0.09891053 0.55056524 0.2883234 -0.5516845 -0.19807276
-0.17980687 0.41334742 -0.24680372 0.27418232 0.5036141 -0.8890521 0.17364188 -0.14998223
0.08033383 0.62598044 0.72949916 -0.6085075 -0.3301628 0.4570481 0.7715471 -0.49610713
-0.031996895 -0.47315168 0.29969874 0.5788439 0.16328551 -0.4614594 -0.35964155 0.5337667
-0.10862727 -0.041969627 0.20831834 -0.89889234 -0.37699112 -0.044285256 0.50636363 -0.49426115
0.2903272 0.64307445 0.17335774 0.5684632 -0.47921795 0.41612393 0.39218968 0.71683824
-0.20303819 -0.04024806 0.039848376 -0.06230703 2.9358676e-05 -0.055110365 -0.13786364 -0.19767368
-0.24654391 0.054461177 0.08115422 0.14512758 0.14245838 0.079292625 -0.2637222 -0.113887146
-0.46685374 -0.49992085 -0.5050265 -0.5613539 0.40067634 0.29287186 0.8852541 0.18319048
-0.26555243 0.58416677 0.6412683 0.72708726 0.21017095 0.6050185 0.4776134 0.25649768
0.6334983 0.46353543 0.5507653 -0.049689587 0.77766657 -0.20688002 -0.104017094 -0.43903685
0.67446804 0.30131474 -0.44084755 0.66601515 -0.21298969 -0.6296766 0.5613257 0.07071245

layer2.bias f4 [16]
00000000: af69 1c3d 7491 823e 633b 82be e9ad 953d
00000010: 8e1b 29be 19c9 9abd eb7b ea3e a2a1 fc3e
00000020: 10f6 f63e 4af1 10bd 1677 863e 9632 b83e
00000030: d466 a93e 7c1b 0cbd 21d1 803d 2e25 b03e
0.038186725 0.25501597 -0.25435933 0.07308561 -0.16514418 -0.075578876 0.45797667 0.49342066
0.48234606 -0.03538636 0.2626273 0.35976094 0.33086264 -0.0342059 0.06289888 0.34403366

layer3.weight f4 [10, 16]
00000000: cecd 67bf c84e b03e f3d5 1c3e 8f1c 4bbe
00000010: 80b8 083d 76d3 5dbf fb81 033f 1552 db3e
00000020: f843 6bbf 6f51 c4bd 34eb 35bf 2756 e1be
00000030: f1a4 c0bd 7c90 a0bd 2384 f43c ac5a 0abf
00000040: 30aa 7c3c b43c 973e f58c f3bd a17b d2be
00000050: 40ad 2d3c 5369 fc3e fcee d7be c09c a13e
00000060: 90cd 19bf 6860 8a3e fad5 bcbe 1adf 1cbf
00000070: 63c8 2fbf fd37 0a3d a12b 36bf 7330 db3d
00000080: cbfe 89bf 3c54 2ebf 93ec 243e 1943 ec3d
00000090: f25b 403e 2bd0 843c 1b31 013f c2be 993e
000000a0: 24e1 b33e de58 6dbf 0b88 213f 15f3 77bf
000000b0: db1b 44bf e19d 6a3e cd9e babe 08d4 9f3e
000000c0: 183c c83d 1dae 57bf ff8e d0bc e732 0a3e
000000d0: 8046 64be e696 5cbf ff61 b6bc a065 91be
000000e0: fc72 ee3e 2e57 7ebf 4653 db3e 2188 e73e
000000f0: 9187 2f3e 756f 26be 2c70 d43d d485 0a3c
00000100: 9965 9d3d adb8 9cbd 7a48 44bd 5556 503e
00000110: 00a7 87ba 5f11 8abf d827 8dbf 8c1d 37bf
00000120: 06b2 983e 8a84 d73e 53c4 afbe 1471 ac3e
00000130: 3eef de3e 9511 80be ec52 c13d 22be f7be
00000140: c185 5a3e 309a 1d3c 6406 39be 22ec ba3e
00000150: a801 663d 2458 11bd 8b5e 27bf ad26 57bf
00000160: dfda e7bd 0114 cd3e d27a e93e 7958 e93d
00000170: 619a 82bf 428a 55be c3aa f8be 4678 843e
00000180: 2d08 0e3f e2cf 37bf 493a 923d 52dd ea3e
00000190: c08c 213e 02d5 cebe 9b9e 85be 0a17 5abf
000001a0: 45aa 41be 6706 433e be89 63bd 9e9b 87bf
000001b0: 7f23 503e fb0c 7ebd 81ca 173f 1cd2 2fbe
000001c0: bcf5 87bf 8e90 be3e 7dc5 6fbd 1bfc 693d
000001d0: 643c ca3d 27fd b83a 1934 48bf 4643 f0be
000001e0: 388a 9d3e 5458 17be caf8 7b3d c1c0 1b3f
000001f0: 1d97 ab3e c308 603e d098 66bf a51c 903e
00000200: 7e56 a4be 3b49 1e3e ad71 fbbd e2eb 27be
00000210: c45f c83d 51f6 d4be 0578 6abe 7ade cabd
00000220: 0f59 c2be 62e5 8bbe 08f5 a0be e758 06bf
00000230: 58f5 1a3f 6821 173d 0c06 aa3e f92a fb3e
00000240: 0c60 b73e e0db 25bf 0c30 bdbd 9371 dd3d
00000250: 90a8 74be 044f f3be 0315 873e 20c8 a43e
00000260: 6c26 803e a49a 45bd c1db 21bf 9e33 6abf
00000270: 367a 30bf 5e88 b83d 3307 8e3e 4573 84bf
-0.9054841 0.34435105 0.1531599 -0.19835113 0.033379078 -0.8665079 0.5137021 0.4283606
-0.9190059 -0.09585845 -0.71062016 -0.44011042 -0.0940646 -0.07840058 0.029848164 -0.54044604
0.015421435 0.295385 -0.1189212 -0.41109946 0.010600388 0.49299106 -0.42174518 0.31564903
-0.6007929 0.27026677 -0.36882 -0.61277926 -0.6866514 0.0337448 -0.7116032 0.107026
-1.0780882 -0.6809728 0.16105871 0.11536235 0.18785074 0.016212543 0.50465554 0.3002835
0.35132706 -0.92713726 0.6309821 -0.9685529 -0.76605004 0.22911789 -0.3644928 0.31216455
0.09777087 -0.8425005 -0.02545881 0.1349598 -0.22292519 -0.8616775 -0.022263525 -0.28397846
0.465721 -0.99351776 0.4283697 0.45221046 0.17141558 -0.16253455 0.103729576 0.008454759
0.07685394 -0.076524116 -0.04792068 0.20345433 -0.0010349452 -1.0786551 -1.1027784 -0.7152946
0.2982332 0.42093307 -0.3432947 0.33680022 0.43541902 -0.25013414 0.09439644 -0.48387247
0.21340086 0.009619281 -0.18068844 0.3650828 0.056153923 -0.035484448 -0.65378636 -0.8404339
-0.11321043 0.40054324 0.45601517 0.11393828 -1.0203363 -0.20853522 -0.4856778 0.2587301
0.55481225 -0.7180158 0.07140023 0.4587198 0.15776348 -0.40396887 -0.2609757 -0.85191405
-0.18912609 0.19045411 -0.055551283 -1.0594366 0.2032604 -0.062024098 0.5929337 -0.17169994
-1.0621867 0.3721966 -0.05853795 0.057125192 0.098748 0.0014113531 -0.78204495 -0.46926326
0.30769515 -0.14779788 0.06151656 0.60840994 0.33513728 0.21878342 -0.90076923 0.28146854
-0.32097238 0.15457623 -0.12277541 -0.16398576 0.09783891 -0.41594175 -0.22897346 -0.09905715
-0.3795857 -0.27323443 -0.31436944 -0.52479404 0.60530615 0.036897093 0.33207738 0.49056223
0.35815465 -0.6478863 -0.0923768 0.10812678 -0.23892426 -0.47521222 0.26383218 0.32183933
0.25029314 -0.04824318 -0.6322594 -0.9148501 -0.6893648 0.09010385 0.27739868 -1.0347677

layer3.bias f4 [10]
00000000: 9972 9e3d 0ca7 583e 95aa b0bd 05f8 733d
00000010: aa52 44bd 8134 79bc 4ff9 1cbe 2d70 6a3d
00000020: c524 51be e407 c83d
0.077367015 0.21157473 -0.08626286 0.0595627 -0.047930397 -0.015210272 -0.15329479 0.057235885
-0.20424183 0.0976713
