data.pth (torch_old, 7905 bytes, 6 tensors)

layer1.weight f4 [16, 62]
00000000: 5a44 95be 7e53 db3e df9c 8d3e 4924 efbd
00000010: 37b4 83be 9246 5d3c 41eb 613e d853 a7be
00000020: 536e d2bd 4be0 803e 107b cb3e 5aa6 d33e
00000030: e233 303e d3aa a73e 990f 473e b2b1 2d3e
00000040: 1665 08be 2d39 81be 924c 59be 16ab 033e
00000050: cae1 52be 294f 003f 5891 45bc c6bc abbe
00000060: d406 523e dfe9 bbbe d7ee b5be 6e74 52be
00000070: 6e88 033e d8cd 35bd d9bb 1bbe 0ab0 41be
00000080: ebeb 5e3e 1021 cf3e fd21 9bbe d096 4e3e
00000090: 062d cf3e a2e5 9dbd 7fd3 8d3d 26b9 fabd
000000a0: 806f 9f3e 7040 81be e120 a0be e915 d83e
000000b0: 0824 423e 5c70 b73e 2bb0 913e 6546 49be
000000c0: 107c 823e a9a5 e13e e252 20bd aece 403d
000000d0: cc77 e6bd c826 583d 8fd7 2dbf 0ad5 b93e
000000e0: 0d96 a5bd 7e93 e63d 5256 a9be 08d6 aa3d
000000f0: f271 813e 31d2 2f3b b825 913d 8c8c 91bd
00000100: 0c4a b43d 23e7 d63e 5a4f 573d 0669 163e
00000110: 4601 843e ff89 6d3d 08fb a1bd 840c 51be
00000120: f7f5 c83e 7bed 7e3b ac3d 013e 6648 1a3e
00000130: 62d3 6f3e e618 633e f27e e43e 342e fdbc
00000140: 4d07 b03a 8966 673e 8635 f13e 558d 9c3e
00000150: ff98 2d3e 7955 253f 28e0 063e ce09 583e
00000160: 87f3 a33e 33ff 84bd 1446 8bbe e58e 013f
00000170: fad2 2f3e da47 783e d579 503e 18f1 9d3e
00000180: df33 d93d f050 24bd 8d30 583d dc52 763e
00000190: 01b9 6b3e f0f0 4a3e 6545 273e 965a acbe
000001a0: 2b3e 853e e84d a7be 4a74 833e d00a b93e
000001b0: cef4 6a3e 128c 8cbd d3ac ecbc 2e2d 88be
000001c0: 7eb9 67bd ff7f 7f3d 16b8 473e bec8 343e
000001d0: b2ce 3c3f f680 dabd c5cf 9d3b 9694 89be
000001e0: 97b8 00be 07bb e23a 2b99 5b3e 13c3 1bbe
000001f0: d909 e53d 4806 a5bd 846b 4b3e e6fc b63e
00000200: 4d05 fb3e ab5d c53e 4dee cf3d 36c0 073f
00000210: 4017 053f d0b2 753d dbd5 e7be 89da 753e
00000220: 8a79 ab3e f1cb c83e e251 323e e49f 6d3e
00000230: d97f 883e 4ea1 ed3e 7624 023f c2ea 113f
00000240: bba2 b13e 3d1b f6be 8671 bd3e c898 073f
00000250: ddf5 8abe 3313 f73e 1bdb 283f ac5d c03e
00000260: ead2 09bf 0470 0e3f 3c0e 9a3e eba4 123f
00000270: 4ce6 143e 33e7 a8be 781e c23e a0d2 c33e
00000280: cae2 ff3d 7563 323e 9247 7d3e ff7d 143e
00000290: a66f 883e df42 f2be 2965 9f3e 11f9 8dbe
000002a0: fc64 753e 2f42 88be dedc 813e c93f 993e
000002b0: 62ca 353e 6b00 29be 57a5 fbbe 73fb 51be
000002c0: 5e73 2a3e f579 fb3e c499 22be ebda eebb
000002d0: e783 3d3e 2389 a5be 605c 763e 2506 4e3e
000002e0: d398 5b3e fe35 e33d 8b76 8c3e a5a1 a7bb
000002f0: d692 bf3e c3ec b43e 12d6 aabd 28dd adbc
00000300: 2275 ae3e 114e c83e 321e 48bd 449d fbbd
00000310: 8f2c 453e f8b1 f9bc daf3 d33e f1cb 083f
00000320: 5298 ea3e 8a8a e53c ad02 0cbe d634 b8be
00000330: fde8 9bbd 2ae3 913d 57dc 7ebd 97f1 e93d
00000340: 0438 55be 8504 4cbe 93df 6abe c307 073e
00000350: 5ccc 4bbe d771 78be d61d a1bd b407 dfbe
00000360: b154 153c f314 c6bd 611d 82be 717d be3c
00000370: 85a0 df3e a0e2 94bc beb4 cb3e 4fc9 40bc
00000380: 77d9 44be ddbd 3abe 6a9b bf3e 848d ec3b
00000390: b044 c33d 97f1 c3be 0ed4 fbbd 012c dbbc
000003a0: 7d18 c9be f9a7 a63e 9709 21bd b03f 903d
000003b0: d731 bdbe 3475 60be fd4f b3bd c4b9 b8bd
000003c0: a7b2 37bf a215 9fba 1000 893e 8e03 8a3e
000003d0: 318c f43e 5e36 2fbe 29b2 2e3e 4c52 773e
000003e0: 94c4 b53e f436 af3e 19fe 6abe 4054 123d
000003f0: 59cb c53c 1b47 923e 4916 ffbc f7c2 123e
-0.2915371 0.42837137 0.27658746 -0.11676843 -0.2572343 0.013505595 0.22062398 -0.32681155
-0.10274949 0.25171122 0.39742327 0.41337854 0.17207292 0.32747516 0.19439544 0.16962317
-0.13319811 -0.25238934 -0.21220616 0.12858233 -0.20593944 0.5012079 -0.012058578 -0.3354246
0.20510417 -0.36701867 -0.35533783 -0.20552227 0.12845013 -0.04438576 -0.15208377 -0.1891481
0.21769683 0.40454912 -0.30299369 0.20174718 0.40464038 -0.077098146 0.06925105 -0.122423455
0.31139755 -0.25244474 -0.31275085 0.42204216 0.18959057 0.3582791 0.28454718 -0.1965576
0.25485277 0.440717 -0.039141543 0.047072105 -0.11253318 0.05277136 -0.6790704 0.36295348
-0.080852605 0.11258601 -0.3307367 0.083416045 0.25282246 0.0026828165 0.070872724 -0.07106885
0.08803186 0.41973218 0.05256591 0.14688501 0.25782222 0.05799293 -0.079092085 -0.2041493
0.39250156 0.0038898874 0.12621182 0.1506668 0.2342048 0.22177467 0.44628102 -0.03090582
0.001342991 0.22597708 0.47111148 0.30576578 0.16952895 0.64583546 0.13171446 0.2109749
0.32021734 -0.06493988 -0.27201903 0.50608665 0.17170325 0.24246159 0.20358975 0.30848002
0.10605597 -0.04011625 0.052780677 0.24055046 0.23019792 0.19818473 0.16335066 -0.33662862
0.26023993 -0.32676625 0.2567466 0.36141062 0.22944948 -0.06862654 -0.028891003 -0.2659697
-0.056573384 0.062377926 0.19503817 0.17654702 0.7375289 -0.106691286 0.004816028 -0.26871175
-0.12570415 0.001729817 0.21445148 -0.15211134 0.11183519 -0.08057839 0.19865233 0.3573982
0.49027482 0.38548025 0.10152874 0.53027666 0.519886 0.059984982 -0.45280346 0.24009146
0.33491164 0.39218095 0.17414048 0.23205525 0.2666004 0.46412128 0.50836885 0.56998837
0.34694466 -0.48067656 0.37000674 0.529675 -0.27140704 0.48256835 0.6595933 0.37571466
-0.53837454 0.5563967 0.30088985 0.57282895 0.14540976 -0.3298889 0.3791387 0.38246632
0.124944285 0.17420752 0.24734333 0.14501189 0.2664768 -0.47316644 0.31131867 -0.27729085
0.23964304 -0.26612994 0.2536382 0.29931477 0.17752984 -0.16504066 -0.49149582 -0.20506077
0.16645572 0.49116483 -0.1587897 -0.0072892806 0.18507348 -0.3233119 0.24058676 0.20119531
0.21445017 0.110942826 0.2743419 -0.005115705 0.37416714 0.35336885 -0.08341612 -0.02122362
0.3407374 0.3912206 -0.04885692 -0.122858554 0.19255279 -0.03048037 0.4139698 0.5343619
0.45819336 0.028020162 -0.13672896 -0.3597781 -0.07612798 0.07123406 -0.06222185 0.11423033
-0.2082215 -0.19923599 -0.2293685 0.13186555 -0.19902176 -0.24262176 -0.07867019 -0.43560565
0.00911443 -0.096719645 -0.2541304 0.023253174 0.43677154 -0.01817447 0.39786333 -0.011766746
-0.19223581 -0.1823649 0.3742326 0.0072190184 0.095345855 -0.38270256 -0.122963056 -0.026754381
-0.39276496 0.32550028 -0.039315786 0.070433974 -0.36952087 -0.2191971 -0.08755491 -0.09019807
-0.71756977 -0.0012137184 0.2675786 0.26955837 0.47763208 -0.17110583 0.1706015 0.24152488
0.3550154 0.34221613 -0.22948493 0.03572488 0.024144815 0.28569874 -0.031138556 0.14332186

layer1.bias f4 [16]
00000000: ad0a 013f 5b70 0a3f e818 f63e 79b5 4b3e
00000010: 90f1 f33e ca54 953e e872 bc3e 8705 d53e
00000020: 32f2 403e fc48 413f 4d2c 913e 27f6 be3e
00000030: cc0f 803e efb1 af3e 76ca 3e3e ce96 de3e
0.50406915 0.5407769 0.48065877 0.19893445 0.47645235 0.2916625 0.36806417 0.4160578
0.1884239 0.7550199 0.2835411 0.37297174 0.25012052 0.3431544 0.1863192 0.4347443

layer2.weight f4 [16, 16]
00000000: 8727 53bd b618 3f3f c6ca 1d3f 1eca 7e3e
00000010: f6e7 833d c90c 423f ad29 49bf 1133 8c3d
00000020: 0b4a 2e3f 680a 0a3f fc45 e43e c54e 96bd
00000030: 3c6d 2f3d 1937 9dbe bca7 49bf 8670 60bf
00000040: 7970 11be f094 193e c520 473f 7af3 443f
00000050: f587 a3bd 5cb7 11be 82bf 8f3e 4fba 10bf
00000060: dfe2 cc3d 9ec0 15bd 3404 4ebd 5082 5b3f
00000070: ee2f 493f 4203 583e 14c0 16bd a018 9b3e
00000080: 5864 113f 5021 c73e ed75 c73d 6f78 bb3c
00000090: 009c 82bd 62cb dabe 3a49 5f3e d79d 18be
000000a0: 4097 0ebf 98c0 283e d6ce 6abe 1f25 333e
000000b0: f8be 543f cd05 3e3f 85ac 663e 6fa1 b13e
000000c0: b42d 1cbe 5ef7 633e 6fe6 803f d9db ba3e
000000d0: 55a8 943e 8ce2 be3e a1d5 f1be d78a 993e
000000e0: ffd8 d5bc 849f a3bd aee1 aabe 2d27 8a3e
000000f0: 1757 1b3f 9cbf 373f 3c3c 59be 8176 b9ba
00000100: 9e87 223f 43ef c73e bead b53d e919 1abf
00000110: 3971 3d3f 656c 87be f323 fd3e 6ea4 863f
00000120: 3beb b8be 3a0f fd3e 7cd8 21bd cafc e9be
00000130: 391b d83e 3151 033f d699 f23e 0847 103e
00000140: 9239 82be 32d1 4c3e ab87 b1be 2417 b53e
00000150: 2a06 353f 18e6 2cbd 20ee 3a3f e392 e1bd
00000160: 6db5 843e ca62 f8be a2eb e13e 2d9a 1c3f
00000170: 779a 983d e92b 343f a9a5 8f3e 7cbe 3f3f
00000180: fc16 1e3f cce2 473e 30c0 31be 0c5e 75be
00000190: d6c7 4d3d 0291 7dbe 45a5 443f d88a 96be
000001a0: 2cce fb3e 4b01 263d 872f 823f 4b50 ef3e
000001b0: 7ecf 02be 4813 30be 7649 5b3f cad2 34bf
000001c0: d316 a23e 5d9a 91be 2c06 1c3f 752e 65be
000001d0: 7fcd 103f 0986 28be 1d6d 523f 8cca 653f
000001e0: 3eda 0a3e 3ef6 1bbe c5d6 14bd 75d7 e43e
000001f0: f069 35bd 47f8 153f c43e 4b3f 1707 05bf
00000200: 601f 243f 4a28 333f 634e ee3e f38a cf3e
00000210: 86f0 513d e249 29bf fdb5 023f f32e fcbe
00000220: 3822 1bbf b163 4c3f cd67 1bbe 6a00 0d3d
00000230: df0e 313f 18aa 0d3f d4e3 ac3e aaf0 ffbe
00000240: 8a9d 51bf 4eea 4c3f ddfd 133f d3b8 23bf
00000250: e63d 5c3f 0cfc d83e bfec 99be 72e9 df3e
00000260: dc5d f43d 94f2 6bbe 345b e9bd ad9c 013f
00000270: dc4d 98be fbe2 0c3f 2e9c a0be 6254 253e
00000280: c8c9 263f ec47 1e3f 3058 f7bd c48b 043f
00000290: 4a04 59bd 2c10 273f 940b dbbe a793 ce3d
000002a0: 4e26 6dbf 3ec8 a93e 72db 23bf 26f8 3a3e
000002b0: d4c8 0e3f 293e f03b fa17 bcbe 60ed 5a3f
000002c0: 946a 543f 70d3 d13e 3de7 34bc 0ee5 943d
000002d0: 1c97 f53e ad0e fabe 1376 463f 0b95 ca3e
000002e0: 8e5f 02bf c616 433f 641e acbd 47d1 e33e
000002f0: c838 3c3f 8797 2a3f 971e 533f 138d f83e
00000300: c7a6 bdbd e6dc 533f 1ff1 4f3f befe 49bf
00000310: b160 893f 6c2b d1bc 1563 29bf b40d a63e
00000320: 3b80 5a3e 8df5 243f cdd9 013f 66ab a43e
00000330: a58a 55bf f367 45bf 82c3 2cbf 4dfd 4fbf
00000340: 3b76 85be f479 b1bc 77f5 8f3e a462 ac3e
00000350: 8472 c13d 59e9 513f 0bc1 123f 61c8 083f
00000360: 284a 233f 1154 3cbf 3a0a b23e f6f9 023f
00000370: 4dda f53e 732e 843f 15ef 063f d1ed ab3e
00000380: acd3 883e 853a 633f 557e a13e db08 e43d
00000390: 8299 8fbe 1e5c dcbe 6adf 983e 5a18 40bf
000003a0: 3b2f 0abf 9f1d cb3e 8c29 e5be b1c9 0b3f
000003b0: 3443 343f 307f e23e 9378 f83d 2d18 da3d
000003c0: 5269 94be 6949 053e 4e1f b43e 0f7c 0d3f
000003d0: 55e5 dfbe 58e2 203f dc4f f6bc f530 fb3d
000003e0: 4307 5e3f 235b 87be 1dee 1d3f b49b 7a3e
000003f0: cd21 91bd 5477 043f 055e 913d 8be4 e7bd
-0.051551368 0.7464708 0.6163753 0.24881789 0.064407274 0.7580076 -0.7857922 0.06845678
0.6808173 0.5392213 0.44584644 -0.07339243 0.042828783 -0.307061 -0.7877157 -0.876717
-0.14203061 0.14998221 0.7778438 0.76934016 -0.07984916 -0.14230102 0.28075796 -0.56534284
0.1000421 -0.036560647 -0.050296977 0.85745716 0.7858876 0.21094993 -0.036804274 0.30292225
0.5679374 0.38892603 0.097392894 0.022884576 -0.06377411 -0.42733294 0.21805277 -0.14903961
-0.5569954 0.16479719 -0.22930464 0.1749463 0.83103895 0.742276 0.22526748 0.34693477
-0.1525181 0.22262332 1.0070323 0.36495855 0.29034677 0.37282217 -0.47233298 0.2998874
-0.026104448 -0.079894096 -0.33375305 0.26983014 0.60679764 0.7177675 -0.21214384 -0.0014149697
0.63488185 0.3904973 0.08871029 -0.60195786 0.7400089 -0.26449886 0.4944149 1.051893
-0.36116967 0.4942568 -0.039513096 -0.45700675 0.4220827 0.51295763 0.47382993 0.14089596
-0.25434548 0.20001677 -0.3467382 0.35369217 0.7071253 -0.042211622 0.730196 -0.110143445
0.25919667 -0.4851287 0.44125086 0.61172754 0.07451337 0.703795 0.28056076 0.7490003
0.6175382 0.1952011 -0.1735847 -0.23961657 0.050239407 -0.24762347 0.7681468 -0.29402804
0.49180734 0.040528577 1.0170754 0.46740946 -0.12774464 -0.17194855 0.8565897 -0.7063414
0.31658038 -0.28438082 0.6094692 -0.22381003 0.5656356 -0.1645738 0.82197744 0.89762187
0.13559815 -0.15230653 -0.036337633 0.4469563 -0.044290483 0.58581966 0.7939265 -0.51963943
0.64110374 0.6998335 0.4654418 0.40535697 0.05125477 -0.6612836 0.5105894 -0.4925457
-0.6059909 0.79839617 -0.15176316 0.034424223 0.69163316 0.5533767 0.3376757 -0.499883
-0.8188101 0.8004502 0.5780924 -0.63953894 0.8603195 0.42379797 -0.30063435 0.43732792
0.11931965 -0.23041755 -0.11394349 0.50629693 -0.29746902 0.55033845 -0.31369156 0.1614547
0.65151644 0.61828494 -0.12077367 0.51775765 -0.052982606 0.6525905 -0.4278227 0.10086756
-0.92636573 0.33160585 -0.6400672 0.18258724 0.5577519 0.007331629 -0.36737043 0.85518456
0.82975125 0.40981627 -0.01104146 0.07270251 0.4796685 -0.48839322 0.77523917 0.39566836
-0.50927055 0.76206625 -0.08404234 0.44495603 0.7352414 0.6663746 0.8246855 0.4854513
-0.09260326 0.8275894 0.81227297 -0.7890433 1.0732633 -0.0255334 -0.6616681 0.3243233
0.21337979 0.6443718 0.5072296 0.32162017 -0.8341468 -0.7711174 -0.6748582 -0.8124588
-0.26066765 -0.021664597 0.28116962 0.33669007 0.0944567 0.81996685 0.5732581 0.53430754
0.6378503 -0.73565775 0.34773427 0.5116266 0.48018113 1.0326675 0.5270856 0.33579877
0.26723993 0.8876117 0.31541696 0.111345015 -0.28046805 -0.4303903 0.2985795 -0.7503716
-0.5397832 0.39671037 -0.4475826 0.5460463 0.70415044 0.4423766 0.12132373 0.106491424
-0.28986603 0.13016285 0.35180134 0.55267423 -0.43729654 0.62845373 -0.030067377 0.12265197
0.8672983 -0.2643672 0.6169146 0.24473459 -0.07086525 0.5174458 0.07098011 -0.11322888

layer2.bias f4 [16]
00000000: e3cb 873e 17b6 9ebd 28a4 083e 6931 f6be
00000010: 2702 9f3e 8257 ae3e c9f9 7f3e 56dc 28be
00000020: 68d4 983e 1e1f a93e a3ae d43e 3641 073f
00000030: f2fe 093f d3f5 1bbd 584d 9d3e f6ba ccbd
0.2652274 -0.07749575 0.1334387 -0.48084572 0.3105633 0.34051138 0.24997629 -0.16490301
0.29849553 0.33031553 0.41539487 0.5283388 0.5390464 -0.038076233 0.3072307 -0.099965975

layer3.weight f4 [10, 16]
00000000: 74b8 d8be 4cfe 4fbf dae3 1f3e 03ba 80bf
00000010: ee87 db3e 9f5f 8ebe b399 0c3f 4b9a ed3e
00000020: 82c9 123e 1a31 59bf 92f2 90bf dc7e 913e
00000030: c3d1 d13e e286 3dbf 9938 6abf 8bf5 edbe
00000040: 0a87 a93e 0ae3 b1be 66b8 00bf e730 483e
00000050: 4588 b83d 06ba 0ebf 7b58 8bbf 37e8 963e
00000060: ad95 bfbe ff04 b03e eed6 54bf 474e 80be
00000070: 0fd9 923e 2ce7 f83d ad1b 84bf 7a8a 323e
00000080: 9a65 97bf 57a4 2bbe c9d6 e83e f48c 97bf
00000090: 9de1 2f3e e072 223e 4cb5 963d 64a5 e8be
000000a0: 03cc f53e 23d6 03bf 2cf9 583d ddf2 003f
000000b0: a9fb 76bf 4f6a 39bf 986f 183f 8937 93bf
000000c0: 9d7d 5d3e 2559 0d3e 2ba9 13be 7081 81be
000000d0: d929 d0bd c9e0 6abe 3920 9bbe f62c 4ebe
000000e0: 2322 043e aa9a d73e 4538 aabe 0c63 423e
000000f0: 6ee6 423f 3a8b 8abf e58f ef3d 0ffa 55bf
00000100: caea 5fbe 862a 373e ca51 16bf b1a3 2bbf
00000110: 6bdf 1ebf 1375 743e 13ee 023f da24 413e
00000120: e361 fbbe 8989 99be 2863 84bf 157e efbd
00000130: 3bc4 27bf aebc a13e 64cf 98bf 6522 983e
00000140: 43e4 fdbe a414 cd3e 96ff 873e a7be 793e
00000150: 17b5 25bf 91a2 d03e 5833 7dbf 7efc 08be
00000160: da49 a3be 6830 4b3e ede6 37be 270a b8be
00000170: 4c17 0fbf 1dbd ef3d 0686 07bf 8e86 a23e
00000180: bd92 75bf 0451 8b3d 96b8 203e 7709 f5bd
00000190: f52d d4ba 27fc dd3d 8f45 923e 3bed a83e
000001a0: 51f3 93bc 39d5 bf3d 1896 99bf eb18 39ba
000001b0: 05ae d3be 6dd6 973d fafc 2c3e db5b eebe
000001c0: 59be ba3e d456 dcbe b8fd 81be ee8b 47bf
000001d0: 93b7 d6be e3f4 2b3b be90 8b3e 1593 79bf
000001e0: c74a ebbe 5c8f 963e 13b5 90bf 0e11 5cbf
000001f0: 9763 2d3f 0eef b5bc be1f 33bf b858 9e3e
00000200: 300b bf3e 86f3 d03e a5b2 e23d 4697 2a3e
00000210: 4579 92bd 388a 40bf ce57 8cbf 5ab3 41bf
00000220: 0499 553e a398 3bbf 80ca e63e 4468 bb3d
00000230: 405c 0dbf 9dbb 0bbf 5f79 b53e 572f b9be
00000240: 6126 42bf 55c0 48bf 6310 903c d0bb eebe
00000250: 8712 eb3e b191 e73e b20b 68bf 75e4 523b
00000260: 35ac 43bf 5fca e93e a8f0 d23e c0eb c23e
00000270: 6f0a 87bd c298 cc3d d39c 81bf 06f0 50bf
-0.42328227 -0.812474 0.15614262 -1.0056766 0.42877144 -0.27807328 0.54922026 0.4640678
0.14334682 -0.8484055 -1.1324027 0.284171 0.40980348 -0.7403394 -0.9149261 -0.46476397
0.3311084 -0.3474353 -0.5028137 0.19549905 0.09010366 -0.557526 -1.0886377 0.2947404
-0.3741888 0.34378812 -0.83140457 -0.2505972 0.28681228 0.121534675 -1.0320946 0.17435637
-1.1827881 -0.1676191 0.45476368 -1.183989 0.17175908 0.15864134 0.073587984 -0.45438683
0.4800721 -0.5149862 0.052972004 0.5037058 -0.9647775 -0.7242784 0.5954528 -1.1501323
0.21629949 0.13803537 -0.14420001 -0.25294065 -0.10164232 -0.22937311 -0.3029802 -0.20134339
0.12903647 0.42110187 -0.33246055 0.18983096 0.7613286 -1.0823739 0.116973676 -0.83584684
-0.21866909 0.17887315 -0.5871855 -0.6704665 -0.6205966 0.23872785 0.5114452 0.18861714
-0.4909812 -0.29987743 -1.034276 -0.1169397 -0.655338 0.31589264 -1.193829 0.2971374
-0.49588212 0.4005481 0.26562184 0.24389134 -0.64729446 0.40749028 -0.9890647 -0.13377568
-0.31892282 0.19842684 -0.17959185 -0.35945246 -0.55894923 0.11705992 -0.5293888 0.31743282
-0.9592703 0.06802562 0.15695414 -0.11964696 -0.0016188013 0.1083911 0.28568694 0.32993492
-0.018060358 0.09366841 -1.199893 -0.0007060903 -0.41343704 0.07413945 0.16893378 -0.46554455
0.3647335 -0.43034995 -0.25388885 -0.7794789 -0.4193693 0.0026238493 0.27258867 -0.97490054
-0.45955488 0.2940625 -1.130526 -0.85963523 0.6773009 -0.022208717 -0.6997031 0.30927062
0.37313223 0.40810794 0.1106923 0.16659269 -0.071520366 -0.75210905 -1.0964296 -0.75664294
0.20859152 -0.7327978 0.4507637 0.091507465 -0.5521889 -0.5458315 0.3544416 -0.3616893
-0.7583981 -0.78418475 0.017585939 -0.46627665 0.45912573 0.4522834 -0.90642846 0.0032179628
-0.7643464 0.4566221 0.4119923 0.38070488 -0.06593787 0.09990074 -1.0125984 -0.81616247

layer3.bias f4 [10]
00000000: cf23 36be 609c 91bb b3d9 303e 9679 2f3e
00000010: dd9e 1c3e 9772 63be 02bf 9ebe 9621 5a3e
00000020: 9cea 66be be9f c63e
-0.17787097 -0.00444369 0.17270546 0.17136225 0.15294977 -0.22211681 -0.31005102 0.21301875
-0.22550434 0.3879375
